{"modelTopology": {"model_config": {"class_name": "Sequential", "config": [{"class_name": "Dense", "config": {"bias_initializer": {"class_name": "Zeros", "config": {}}, "trainable": true, "kernel_constraint": null, "activation": "linear", "name": "dense_2", "batch_input_shape": [null, 128], "use_bias": true, "kernel_regularizer": null, "dtype": "float32", "units": 8192, "bias_constraint": null, "kernel_initializer": {"class_name": "VarianceScaling", "config": {"mode": "fan_avg", "scale": 1.0, "distribution": "uniform", "seed": null}}, "activity_regularizer": null, "bias_regularizer": null}}, {"class_name": "BatchNormalization", "config": {"center": true, "beta_initializer": {"class_name": "Zeros", "config": {}}, "trainable": true, "gamma_constraint": null, "name": "batch_normalization_5", "gamma_initializer": {"class_name": "Ones", "config": {}}, "moving_variance_initializer": {"class_name": "Ones", "config": {}}, "axis": 1, "gamma_regularizer": null, "epsilon": 0.001, "momentum": 0.99, "beta_regularizer": null, "scale": true, "moving_mean_initializer": {"class_name": "Zeros", "config": {}}, "beta_constraint": null}}, {"class_name": "Activation", "config": {"trainable": true, "activation": "relu", "name": "activation_6"}}, {"class_name": "Reshape", "config": {"target_shape": [512, 4, 4], "trainable": true, "name": "reshape_2"}}, {"class_name": "Conv2DTranspose", "config": {"bias_initializer": {"class_name": "Zeros", "config": {}}, "trainable": true, "bias_regularizer": null, "padding": "same", "data_format": "channels_first", "name": "conv2d_transpose_5", "kernel_size": [4, 4], "use_bias": true, "strides": [2, 2], "kernel_regularizer": null, "kernel_constraint": null, "filters": 256, "activation": "linear", "bias_constraint": null, "kernel_initializer": {"class_name": "VarianceScaling", "config": {"mode": "fan_avg", "scale": 1.0, "distribution": "uniform", "seed": null}}, "activity_regularizer": null}}, {"class_name": "BatchNormalization", "config": {"center": true, "beta_initializer": {"class_name": "Zeros", "config": {}}, "trainable": true, "gamma_constraint": null, "name": "batch_normalization_6", "gamma_initializer": {"class_name": "Ones", "config": {}}, "moving_variance_initializer": {"class_name": "Ones", "config": {}}, "axis": 1, "gamma_regularizer": null, "epsilon": 0.001, "momentum": 0.99, "beta_regularizer": null, "scale": true, "moving_mean_initializer": {"class_name": "Zeros", "config": {}}, "beta_constraint": null}}, {"class_name": "Activation", "config": {"trainable": true, "activation": "relu", "name": "activation_7"}}, {"class_name": "Conv2DTranspose", "config": {"bias_initializer": {"class_name": "Zeros", "config": {}}, "trainable": true, "bias_regularizer": null, "padding": "same", "data_format": "channels_first", "name": "conv2d_transpose_6", "kernel_size": [4, 4], "use_bias": true, "strides": [2, 2], "kernel_regularizer": null, "kernel_constraint": null, "filters": 128, "activation": "linear", "bias_constraint": null, "kernel_initializer": {"class_name": "VarianceScaling", "config": {"mode": "fan_avg", "scale": 1.0, "distribution": "uniform", "seed": null}}, "activity_regularizer": null}}, {"class_name": "BatchNormalization", "config": {"center": true, "beta_initializer": {"class_name": "Zeros", "config": {}}, "trainable": true, "gamma_constraint": null, "name": "batch_normalization_7", "gamma_initializer": {"class_name": "Ones", "config": {}}, "moving_variance_initializer": {"class_name": "Ones", "config": {}}, "axis": 1, "gamma_regularizer": null, "epsilon": 0.001, "momentum": 0.99, "beta_regularizer": null, "scale": true, "moving_mean_initializer": {"class_name": "Zeros", "config": {}}, "beta_constraint": null}}, {"class_name": "Activation", "config": {"trainable": true, "activation": "relu", "name": "activation_8"}}, {"class_name": "Conv2DTranspose", "config": {"bias_initializer": {"class_name": "Zeros", "config": {}}, "trainable": true, "bias_regularizer": null, "padding": "same", "data_format": "channels_first", "name": "conv2d_transpose_7", "kernel_size": [4, 4], "use_bias": true, "strides": [2, 2], "kernel_regularizer": null, "kernel_constraint": null, "filters": 64, "activation": "linear", "bias_constraint": null, "kernel_initializer": {"class_name": "VarianceScaling", "config": {"mode": "fan_avg", "scale": 1.0, "distribution": "uniform", "seed": null}}, "activity_regularizer": null}}, {"class_name": "BatchNormalization", "config": {"center": true, "beta_initializer": {"class_name": "Zeros", "config": {}}, "trainable": true, "gamma_constraint": null, "name": "batch_normalization_8", "gamma_initializer": {"class_name": "Ones", "config": {}}, "moving_variance_initializer": {"class_name": "Ones", "config": {}}, "axis": 1, "gamma_regularizer": null, "epsilon": 0.001, "momentum": 0.99, "beta_regularizer": null, "scale": true, "moving_mean_initializer": {"class_name": "Zeros", "config": {}}, "beta_constraint": null}}, {"class_name": "Activation", "config": {"trainable": true, "activation": "relu", "name": "activation_9"}}, {"class_name": "Conv2DTranspose", "config": {"bias_initializer": {"class_name": "Zeros", "config": {}}, "trainable": true, "bias_regularizer": null, "padding": "same", "data_format": "channels_first", "name": "conv2d_transpose_8", "kernel_size": [4, 4], "use_bias": true, "strides": [2, 2], "kernel_regularizer": null, "kernel_constraint": null, "filters": 3, "activation": "linear", "bias_constraint": null, "kernel_initializer": {"class_name": "VarianceScaling", "config": {"mode": "fan_avg", "scale": 1.0, "distribution": "uniform", "seed": null}}, "activity_regularizer": null}}, {"class_name": "Activation", "config": {"trainable": true, "activation": "tanh", "name": "activation_10"}}]}, "backend": "tensorflow", "keras_version": "2.1.5"}, "weightsManifest": [{"paths": ["group1-shard1of1"], "weights": [{"shape": [8192], "name": "batch_normalization_5/gamma", "dtype": "float32"}, {"shape": [8192], "name": "batch_normalization_5/beta", "dtype": "float32"}, {"shape": [8192], "name": "batch_normalization_5/moving_mean", "dtype": "float32"}, {"shape": [8192], "name": "batch_normalization_5/moving_variance", "dtype": "float32"}]}, {"paths": ["group2-shard1of1"], "weights": [{"shape": [256], "name": "batch_normalization_6/gamma", "dtype": "float32"}, {"shape": [256], "name": "batch_normalization_6/beta", "dtype": "float32"}, {"shape": [256], "name": "batch_normalization_6/moving_mean", "dtype": "float32"}, {"shape": [256], "name": "batch_normalization_6/moving_variance", "dtype": "float32"}]}, {"paths": ["group3-shard1of1"], "weights": [{"shape": [128], "name": "batch_normalization_7/gamma", "dtype": "float32"}, {"shape": [128], "name": "batch_normalization_7/beta", "dtype": "float32"}, {"shape": [128], "name": "batch_normalization_7/moving_mean", "dtype": "float32"}, {"shape": [128], "name": "batch_normalization_7/moving_variance", "dtype": "float32"}]}, {"paths": ["group4-shard1of1"], "weights": [{"shape": [64], "name": "batch_normalization_8/gamma", "dtype": "float32"}, {"shape": [64], "name": "batch_normalization_8/beta", "dtype": "float32"}, {"shape": [64], "name": "batch_normalization_8/moving_mean", "dtype": "float32"}, {"shape": [64], "name": "batch_normalization_8/moving_variance", "dtype": "float32"}]}, {"paths": ["group5-shard1of3", "group5-shard2of3", "group5-shard3of3"], "weights": [{"shape": [4, 4, 256, 512], "name": "conv2d_transpose_5/kernel", "dtype": "float32"}, {"shape": [256], "name": "conv2d_transpose_5/bias", "dtype": "float32"}]}, {"paths": ["group6-shard1of1"], "weights": [{"shape": [4, 4, 128, 256], "name": "conv2d_transpose_6/kernel", "dtype": "float32"}, {"shape": [128], "name": "conv2d_transpose_6/bias", "dtype": "float32"}]}, {"paths": ["group7-shard1of1"], "weights": [{"shape": [4, 4, 64, 128], "name": "conv2d_transpose_7/kernel", "dtype": "float32"}, {"shape": [64], "name": "conv2d_transpose_7/bias", "dtype": "float32"}]}, {"paths": ["group8-shard1of1"], "weights": [{"shape": [4, 4, 3, 64], "name": "conv2d_transpose_8/kernel", "dtype": "float32"}, {"shape": [3], "name": "conv2d_transpose_8/bias", "dtype": "float32"}]}, {"paths": ["group9-shard1of2", "group9-shard2of2"], "weights": [{"shape": [128, 8192], "name": "dense_2/kernel", "dtype": "float32"}, {"shape": [8192], "name": "dense_2/bias", "dtype": "float32"}]}]}